BTP/GraphBert Code/result/PreTrained_GraphBert/cora/node_classification_complete_model/pytorch_model.bin (torch, 521110 bytes, 47 tensors)

bert.embeddings.raw_feature_embeddings.weight f4 [32, 1433]
-0.00043726957 -0.0006068994 -0.0018736093 0.0010858777 7.16441e-05 0.00050015724 -0.00074549665 -0.00034902015
0.0008703348 -0.00016874692 -0.00020834489 0.0002757759 -0.00038629698 -0.00039452128 -0.00054964056 -2.424281e-05
-0.0007504085 -4.244237e-06 -0.0004153516 0.014819566 0.0004905466 -0.00038453724 5.178902e-06 0.0001959471
0.00017881376 -4.1018182e-05 -0.00026862364 -0.00035262364 -0.0005900964 -0.00015166092 0.00058238464 3.5993275e-05
-1.02247e-05 0.0005005625 -0.00055746903 0.00022896202 -0.00026384505 -0.00022561295 -0.0013446198 -0.0060089543
-0.0008263568 -0.0009642171 0.0003336905 -0.0007075081 -0.00081626413 -0.00020575162 -0.00028580552 5.274649e-05
-0.00040928565 -6.00148e-06 -0.00033065115 -0.0042943656 0.00819397 -0.00039511968 7.507188e-05 -0.0005462954
0.00035791114 -0.00016159813 -0.0020111944 -0.00025605867 -0.00021251649 -0.00028217575 -0.00042200033 -0.00034805402
0.00010741681 -0.0012783762 8.0323225e-05 3.249779e-05 -0.00011458338 -0.00038934537 -0.00041678746 -2.3825405e-05
-0.00024290058 -0.0001400329 -0.00027103684 0.0005921793 0.00013092786 -2.273963e-05 -0.0011081804 -2.0970285e-05
-0.00039073548 -0.00094568956 5.5212295e-06 -3.701262e-05 -0.00028948157 0.00498371 -0.0005601572 -0.00058179634
0.012405149 -0.00037736993 0.00020831599 0.00054888806 -0.00025224453 -0.0011010219 -0.00016480542 0.0001621806
-0.00014620097 -0.00082905 -0.0009201612 -0.0018526874 0.0002790511 -2.3703797e-06 -0.0011727584 1.1874181e-05
-0.0007811208 -0.00029695468 -0.000150093 -0.000107719534 -3.777472e-05 -0.00027941982 -0.00029138 -9.7647346e-05
0.00034476185 3.3343575e-05 0.0005383242 0.00051197805 0.00018811847 0.0002589235 8.378519e-05 -0.0004737068
-0.000114002934 -0.0004827839 0.00019685147 -0.00042640077 -0.00047089776 -0.0059068436 -9.1015405e-05 0.0006462639
-0.00018794037 -0.0005078837 -0.00035438297 0.00081749924 0.010242706 4.70061e-05 -0.00054060575 0.0040553883
0.00042856496 0.0008853516 0.00020802711 4.302364e-05 -0.0075632003 9.492891e-05 0.00017020424 -0.0008030385
-0.00014427975 -0.00030810974 0.00021110936 -0.00042230316 0.0001534087 -0.0004944521 -0.00019845732 -0.0012103243
-0.00019877739 -0.0003470305 -0.0004916985 0.00023128273 -0.00023023124 2.677073e-05 -0.000109229244 -0.00010920612
-0.0001983204 8.49888e-05 -0.00025682693 -7.933215e-05 -0.00018960805 -0.000110692636 -8.43659e-05 4.3307395e-05
0.00018699621 -0.00010620665 0.00014414465 0.00020261295 0.0002435472 -0.0002216672 -1.3094423e-06 0.00017585451
0.0002857407 0.000698834 0.00017840724 0.00017570787 -9.761704e-05 0.00021214757 0.00023927787 0.00013067949
0.00022171043 2.2890903e-05 -0.0004167558 -0.0029527727 0.00015599382 3.0867173e-05 -0.00028843543 0.00032805267
-0.00072502875 -0.0003499846 0.00019784269 7.107302e-05 -0.001855998 -0.00017201895 -1.8144052e-05 -2.3060995e-05
0.00061358494 2.910124e-05 0.00062043266 -0.0022852777 -0.0003932002 -0.0051167137 -0.0002453241 0.00036113904
-0.00043721276 -0.00020591577 0.00055315846 -0.00016534317 -0.00064125005 -0.00022569345 4.2058673e-08 0.00020912907
0.00020542099 -0.0010512366 2.7899834e-05 4.3728254e-05 -0.0001310679 -0.00043108495 0.0006800489 0.00015562332
-0.00015699447 -1.691723e-05 -8.4132706e-05 0.00011282082 -0.0009728492 -0.00026315794 0.00017985882 0.0004480211
2.2782264e-05 -0.0007520409 -0.00029398687 -5.664933e-05 0.00023522424 2.247588e-05 -5.1464893e-05 0.00020406651
-0.00011417428 0.00031164556 -0.0006682769 2.242122e-05 -0.00044282706 0.00024672592 -0.00012960446 0.00042689772
-8.844101e-06 0.00028420603 -0.00080816384 0.00036749936 -0.0005223862 -0.00010303054 -0.00012996737 -1.6871152e-05
00000000: 5441 e5b9 5418 1fba e593 f5ba 0254 8e3a
00000010: a23f 9638 fc1c 033a 6f6d 43ba b1fc b6b9
00000020: 2e27 643a a8f1 30b9 2877 5ab9 0496 9039
00000030: e787 cab9 c0d7 ceb9 c115 10ba 0a5d cbb7
00000040: 10b7 44ba b869 8eb6 8cc3 d9b9 c4cd 723c
00000050: 0698 003a b79b c9b9 6ec6 ad36 2677 4d39
00000060: f47f 3b39 f00a 2cb8 0ed6 8cb9 58e0 b8b9
00000070: b3b0 1aba 2b07 1fb9 2cab 183a 7cf7 1638
00000080: c18a 2bb7 2e38 033a 1d23 12ba 8615 7039
00000090: af54 8ab9 8492 6cb9 f43d b0ba c3e6 c4bb
000000a0: de9f 58ba 84c3 7cba 2ef3 ae39 1178 39ba
000000b0: 8ffa 55ba 08bf 57b9 2bd8 95b9 1d3c 5d38
000000c0: 6495 d6b9 5260 c9b6 3f5b adb9 c0b7 8cbb
000000d0: 0040 063c 1128 cfb9 e96f 9d38 4435 0fba
000000e0: 05a6 bb39 ab72 29b9 3ece 03bb 9d3f 86b9
000000f0: f6d6 5eb9 fdf0 93b9 ed3f ddb9 057b b6b9
00000100: f644 e138 308f a7ba 3473 a838 3c4e 0838
00000110: 7c4c f0b8 0d21 ccb9 4484 dab9 abdc c7b7
00000120: 21b3 7eb9 ccd5 12b9 f319 8eb9 7b3c 1b3a
00000130: ae49 0939 fcc0 beb7 5d40 91ba 58e9 afb7
00000140: a1db ccb9 27e8 77ba 0043 b936 003e 1bb8
00000150: 8fc5 97b9 644e a33b 83d7 12ba b183 18ba
00000160: f73e 4b3c bcd9 c5b9 666f 5a39 41e3 0f3a
00000170: b03f 84b9 2a50 90ba 9ecf 2cb9 060f 2a39
00000180: 864d 19b9 9b54 59ba f936 71ba e0d5 f2ba
00000190: 9b4d 9239 d012 1fb6 3eb7 99ba 3837 4737
000001a0: 21c4 4cba 95b0 9bb9 4862 1db9 7ce7 e1b8
000001b0: 4c70 1eb8 187f 92b9 5dc4 98b9 05c8 ccb8
000001c0: 27c1 b439 64da 0b38 531e 0d3a 4436 063a
000001d0: ab41 4539 20c0 8739 d5b5 af38 da5b f8b9
000001e0: dc14 efb8 281e fdb9 ea69 4e39 8b8e dfb9
000001f0: d4e2 f6b9 328e c1bb 86df beb8 096a 293a
00000200: dc11 45b9 8023 05ba 7acc b9b9 724d 563a
00000210: 06d1 273c 6a28 4538 70b7 0dba 10e3 843b
00000220: 04b1 e039 f116 683a da21 5a39 4874 3438
00000230: b9d4 f7bb 9214 c738 da78 3239 0083 52ba
00000240: cd49 17b9 ca89 a1b9 3d5d 5d39 9268 ddb9
00000250: 56dc 2039 1e9e 01ba fb18 50b9 bfa3 9eba
00000260: e66e 50b9 a5f1 b5b9 54e5 00ba 7c84 7239
00000270: 3a6a 71b9 b491 e037 0112 e5b8 9705 e5b8
00000280: 3af4 4fb9 043c b238 baa6 86b9 205f a6b8
00000290: 86d1 46b9 a823 e8b8 99ed b0b8 f6a4 3538
000002a0: 6a14 4439 43bb deb8 8925 1739 8074 5439
000002b0: b460 7f39 566f 68b9 18c0 afb5 9665 3839
000002c0: 78cf 9539 f531 373a d412 3b39 393e 3839
000002d0: c0b7 ccb8 ee73 5e39 aae6 7a39 0207 0939
000002e0: f17a 6839 d705 c037 0480 dab9 4e83 41bb
000002f0: 4692 2339 6077 0138 2639 97b9 7cfe ab39
00000300: db0f 3eba 237e b7b9 fe73 4f39 090d 9538
00000310: f544 f3ba fc5f 34b9 0e34 98b7 1c73 c1b7
00000320: fdd8 203a 701e f437 88a4 223a 99c4 15bb
00000330: 7026 ceb9 1baa a7bb d89e 80b9 4357 bd39
00000340: b439 e5b9 18eb 57b9 d601 113a f85f 2db9
00000350: 9019 28ba 20a8 6cb9 00a4 3433 a849 5b39
00000360: 4766 5739 a6c9 89ba 700a ea37 db68 3738
00000370: 466f 09b9 3e03 e2b9 4f45 323a d12e 2339
00000380: e29e 24b9 7ae9 8db7 6770 b0b8 379a ec38
00000390: ce06 7fba 76f8 89b9 7c98 3c39 60e4 ea39
000003a0: 8a1c bf37 9c24 45ba 4022 9ab9 c19a 6db8
000003b0: 87a6 7639 968a bc37 02dc 57b8 b0fa 5539
000003c0: da70 efb8 5c64 a339 4e2f 2fba 3415 bc37
000003d0: 3e2b e8b9 fe5a 8139 6fe6 07b9 3ed1 df39
000003e0: 2061 14b7 7d01 9539 f5da 53ba eeac c039
000003f0: bff0 08ba 1a12 d8b8 da47 08b9 8686 8db7

bert.embeddings.raw_feature_embeddings.bias f4 [32]
-0.0017847727 -0.0008532502 -0.004794159 -0.0048926035 -0.03432945 0.0021179416 0.016137715 -0.0029633753
-0.004493764 0.00857458 0.014078792 -0.007284827 -0.0030201986 -0.006763745 0.09806664 -0.017710818
-0.0020163974 -0.0077296575 -0.050315075 0.0012923303 0.014726811 -0.003340473 0.024685416 -0.0036147125
-0.022368211 0.02667462 -0.00082277553 -0.0032780548 0.002139691 -0.008058356 0.007690487 -0.014200897
00000000: 09ef e9ba a7ac 5fba 5218 9dbb 2252 a0bb
00000010: 0a9d 0cbd 2acd 0a3b 3e33 843c 3035 42bb
00000020: 6d40 93bb 657c 0c3c bcaa 663c 8fb5 eebb
00000030: 86ee 45bb 68a2 ddbb 2ad7 c83d 4716 91bc
00000040: 8925 04bb 1149 fdbb 2e17 4ebd 6963 a93a
00000050: b948 713c d6eb 5abb 1239 ca3c d0e4 6cbb
00000060: 8a3d b7bc bc84 da3c 88af 57ba a2d4 56bb
00000070: 0f3a 0c3b 3207 04bc 7b00 fc3b e1aa 68bc

bert.embeddings.wl_role_embeddings.weight f4 [100, 32]
2.7435608e-06 1.3181705e-06 -2.4127376e-06 -3.3731794e-08 -2.2246998e-06 -2.617497e-06 5.965019e-07 -2.4705134e-06
8.798979e-07 -2.0931905e-06 9.112978e-07 2.5548377e-06 -7.5470143e-07 -4.767387e-07 -1.6189801e-07 2.3210741e-06
-2.3739008e-06 1.9365953e-06 2.3430721e-07 -4.777139e-07 -2.7909018e-06 9.574508e-07 2.595537e-06 2.4018086e-06
-2.4331719e-06 2.4983196e-06 2.4848646e-06 -6.9653265e-07 -5.790855e-07 1.8939181e-06 2.8832878e-06 -2.4792516e-06
-0.015837887 0.0018624805 -0.0073103523 -0.00057462894 -0.0050967834 0.001482714 0.000646928 0.0006358051
0.0021108266 -0.0037133822 -0.0003493904 -0.013761086 0.00026339525 0.0019486287 0.05961747 -0.02681495
0.0022718846 0.00703033 -0.02201279 -0.008765404 0.020834569 0.0014051878 0.027314123 -0.0059614126
-0.0067440774 0.012721174 0.005159707 9.465517e-05 -0.00054377073 0.007821181 -0.008720383 0.007212683
2.1948745e-05 0.0018001536 0.0008693718 -0.0023932261 -0.0014320068 0.0009322853 -0.00030449324 -0.0007043843
-0.0004234396 -0.0003914624 -0.00015001827 0.0005629319 0.0010405949 0.00017549127 0.0010081754 0.00040796457
-0.00029650857 -0.00015986044 -0.0015606276 0.0001727167 -0.0016881777 0.00062186964 0.0012263608 -0.007608323
0.00012028852 0.0011941654 0.0052217776 0.00019940021 0.0021011753 -0.00017763727 -0.00091645273 -0.00016757206
-0.0006372548 -9.074896e-05 -0.00026969248 -0.0013158579 -0.0009457922 0.00036131416 -0.0012040106 -4.8861606e-05
-0.00056496944 -0.0004986983 -0.0003589757 -0.0008119872 -0.0006690574 -5.085537e-05 -0.0002536619 -0.0004838631
8.6774584e-05 0.0008305971 -0.00039652025 -0.00032418527 0.00034793152 -0.0006739418 0.0003204192 0.003642
-0.00029275828 -0.0011808834 0.0011571535 -0.00030201895 -0.0011203769 -0.00042655796 -0.00082225236 0.0009658828
-0.00025232777 -0.00030542054 0.00031786243 -0.0012085198 -0.0029069658 0.0020244878 -0.00026965918 0.00045370974
-0.0006869118 0.00020985198 -0.0001767319 0.0009326579 -0.00052205974 6.9343354e-05 0.00015590596 0.00081487634
1.9022329e-05 -0.00057722704 -0.0017451114 6.484727e-05 0.00029694542 -0.00047995202 0.003535115 -0.005396776
0.00072725123 -0.00024899433 0.0021981644 0.00016450396 0.00039375172 0.0009940813 0.001453577 0.0007023892
-0.00011346991 -0.001070811 0.00010729901 -0.0008195159 -0.000120011784 -0.00064366363 0.00041901422 0.0001927515
-8.165261e-05 9.819555e-05 4.4836874e-05 0.0003630878 0.000114298375 0.00017134206 9.369822e-05 0.00012937597
-0.00014621313 5.206399e-06 -0.00013559956 0.00025730854 0.0008169358 -0.00044103243 -0.000102575556 -0.00041352934
-0.00010927487 -1.471347e-06 0.0016560453 -3.8348153e-06 -0.00039118616 -0.000336607 -0.00041266234 0.0002783177
3.3872504e-05 0.0013624972 -8.6854954e-05 0.0036934798 -0.00109768 0.0013966485 -0.0010960664 -0.00044622138
0.0014432672 -0.00034414817 -0.00029754327 4.3691944e-06 0.00018304499 -0.00037162378 0.0008487791 -0.00042225022
-0.00036650742 -0.0002629392 -0.0014349573 8.7062916e-05 -0.002051623 -0.00057709543 0.001522841 -0.0038373831
-4.782348e-05 1.3508086e-05 0.0031581477 0.0007708776 0.00064261263 -0.00018965776 -0.00048374844 -0.00052909844
7.0924434e-05 0.0003968701 -0.00019381144 -0.0035921372 -8.404125e-05 0.00067501044 -0.0002516728 -0.00079385436
0.00056765904 -0.0003204002 -5.2038533e-05 -0.00059847086 0.00046556958 0.00039510502 2.3762139e-05 0.00022717749
-0.00019154632 0.00080355734 5.401049e-05 -0.0008141135 0.0012644301 -5.489545e-05 0.00058798055 -0.0030360688
4.1631516e-05 0.00030731113 0.0035839719 0.0005798785 -0.0007974768 -0.00040996983 -0.00021244952 0.0003039397
00000000: 041e 3836 feeb b035 84ea 21b6 80e0 10b3
00000010: 0d4c 15b6 42a8 2fb6 4c1f 2035 19cb 25b6
00000020: 2032 6c35 bd78 0cb6 e89f 7435 c773 2b36
00000030: b096 4ab5 78f2 ffb4 30d6 2db4 c0c3 1b36
00000040: 4e4f 1fb6 74f6 0136 e095 7b34 403c 00b5
00000050: 544b 3bb6 c281 8035 fc2e 2e36 c22e 2136
00000060: 9349 23b6 cea8 2736 a6c1 2636 5cf9 3ab5
00000070: 7472 1bb5 8832 fe35 827e 4136 3861 26b6
00000080: 75be 81bc 7a1e f43a ae8b efbb b2a2 16ba
00000090: eb02 a7bb a057 c23a 9a96 293a 28ac 263a
000000a0: cb55 0a3b 375c 73bb 632e b7b9 2e76 61bc
000000b0: 5018 8a39 2169 ff3a 7331 743d 07ab dbbc
000000c0: e6e3 143b af5e e63b 2b54 b4bc c59c 0fbc
000000d0: 42ad aa3c 472e b83a dec1 df3c f457 c3bb
000000e0: 6cfd dcbb 796c 503c c212 a93b 9c81 c638
000000f0: d68b 0eba 6924 003c f0df 0ebc 5f58 ec3b
00000100: 921e b837 22f3 eb3a 8ee6 633a acd7 1cbb
00000110: 2db2 bbba 9b64 743a 64a4 9fb9 6ea6 38ba
00000120: 1a01 deb9 323d cdb9 394e 1db9 b891 133a
00000130: 9264 883a 1404 3839 c124 843a 14e4 d539
00000140: b574 9bb9 36a0 27b9 f98d ccba 491b 3539
00000150: d845 ddba f704 233a d7bd a03a 3d4f f9bb
00000160: 6843 fc38 8b85 9c3a 721b ab3b 1616 5139
00000170: dfb3 093b 2444 3ab9 1a3e 70ba 48b6 2fb9
00000180: 720d 27ba 7a50 beb8 8365 8db9 dd78 acba
00000190: 0aef 77ba c46e bd39 e4cf 9dba c0f0 4cb8
000001a0: 751a 14ba 14bb 02ba e734 bcb9 8adb 54ba
000001b0: af63 2fba 8a4d 55b8 edfd 84b9 02af fdb9
000001c0: c0fa b538 6ebc 593a 0ce4 cfb9 69f7 a9b9
000001d0: 946a b639 78ab 30ba f0fd a739 9fae 6e3b
000001e0: 5a7d 99b9 dfc7 9aba a1ab 973a 4c58 9eb9
000001f0: 9cd9 92ba a4a3 dfb9 6c8c 57ba 4c33 7d3a
00000200: dc4a 84b9 da20 a0b9 c6a6 a639 3267 9eba
00000210: cb82 3ebb 45ad 043b 0b61 8db9 e4df ed39
00000220: df11 34ba b60b 5c39 1c51 39b9 9d7d 743a
00000230: d6da 08ba 6e6c 9138 b07a 2339 6d9d 553a
00000240: 2492 9f37 0d51 17ba 39bc e4ba 9dfe 8738
00000250: 57af 9b39 12a2 fbb9 63ad 673b 70d7 b0bb
00000260: 01a5 3e3a 748b 82b9 140f 103b b27e 2c39
00000270: 7670 ce39 d54b 823a f385 be3a 8b20 383a
00000280: b2f6 edb8 745a 8cba b805 e138 c8d4 56ba
00000290: d6ae fbb8 89bb 28ba 23af db39 561d 4a39
000002a0: e93c abb8 56ee cd38 3a0f 3c38 d25c be39
000002b0: 79b3 ef38 49aa 3339 d97f c438 19a9 0739
000002c0: ca50 19b9 a0b2 ae36 bb2f 0eb9 5ee7 8639
000002d0: a227 563a 5f3a e7b9 d51d d7b8 f8ce d8b9
000002e0: 802a e5b8 197b c5b5 a90f d93a d0ac 80b6
000002f0: 1e18 cdb9 a07a b0b9 9a5a d8b9 2beb 9139
00000300: 5312 0e38 d295 b23a e625 b6b8 4f0e 723b
00000310: 07e0 8fba bf0f b73a e3a9 8fba d2f2 e9b9
00000320: 032c bd3a c96e b4b9 95ff 9bb9 189b 9236
00000330: c4ef 3f39 80d6 c2b9 9a80 5e3a 7761 ddb9
00000340: cb27 c0b9 1adb 89b9 2d15 bcba 8c95 b638
00000350: 8674 06bb 3848 17ba 119a c73a 9b7c 7bbb
00000360: 1296 48b8 caa0 6237 edf8 4e3b b814 4a3a
00000370: 0175 283a dede 46b9 9e9f fdb9 32b3 0aba
00000380: 44bd 9438 0113 d039 dd39 4bb9 106a 6bbb
00000390: 4d3f b0b8 2ff3 303a f4f2 83b9 aa1a 50ba
000003a0: f4ce 143a 63fb a7b9 f343 5ab8 b3e2 1cba
000003b0: b117 f439 1926 cf39 ce54 c737 7e36 6e39
000003c0: d3d9 48b9 d2a5 523a 5289 6238 3b6a 55ba
000003d0: 3cbb a53a 8a3f 66b8 b522 1a3a c8f8 46bb
000003e0: 809d 2e38 9a1e a139 12e1 6a3b fd02 183a
000003f0: c30d 51ba 38f1 d6b9 fcc4 5eb9 195a 9f39

bert.embeddings.inti_pos_embeddings.weight f4 [100, 32]
-0.00015300911 -0.0060012895 0.0012040619 -0.0020907281 -0.007437566 -0.0024730014 -0.002569113 0.0002967085
0.0009306264 -0.00060690666 -0.000535105 0.0030896182 -0.00011612793 -0.0010606959 0.0063790837 0.00063987053
-0.0005995005 0.0011926736 -0.008817561 0.0010972242 -0.004559188 -0.00091929984 0.008252562 0.00433072
0.0022311185 -6.5598186e-05 0.0007466283 6.5893386e-05 -0.0015446092 0.00039580886 0.0048488094 0.00084470876
0.00089118123 -0.0015256447 -0.00061045354 0.00057065184 -0.0077542416 0.00036028307 -0.0023497378 0.0009343146
9.533755e-05 -0.00027802825 -0.0009043978 0.00028929755 -0.0005731654 0.0018397334 0.0064431466 0.0011754092
-1.6209746e-05 -0.0009016198 -0.008032208 -0.00027972428 0.001006105 0.0011500807 0.0077253575 -0.003257325
0.0021325839 -0.0015709 0.0018502877 -0.00063138147 0.0016793518 -0.00047605977 0.0019653423 0.00032013177
0.00020012623 -0.0034981659 8.329911e-05 -0.005515097 -0.0057571614 -0.0011992361 -0.0017623126 0.0017524
-0.00020752329 -0.0002734486 -0.00041655166 -0.0011245342 0.0007013158 0.0014580834 0.0044010677 0.001707329
0.0003549875 -0.0011319169 -0.0063935365 0.00011419303 0.0064448942 0.001747926 0.006977162 -0.008848313
0.0028566846 0.002447951 0.0026910529 -0.0015917881 0.00028886844 -0.0009711675 0.0043435404 0.002479192
-0.00033163276 -0.0033759996 0.00029488953 -0.00022920626 -0.0061477073 0.0004265101 -0.0014543965 0.0007774152
-0.0004073405 -6.187888e-05 -0.00027210673 -0.00029644193 0.0005407407 -0.00012311483 0.0034941805 0.0010072554
-0.00039190587 0.00095817354 -0.0067865513 -0.0007417513 0.0019126127 0.0005523183 0.0058867475 -0.00554598
0.0015825742 0.00034386825 0.002618726 -0.000629138 -0.00036069617 0.00040962818 0.0009587446 0.001369435
0.00065723306 -0.0009000052 1.021006e-05 0.0004813693 -0.008766467 5.593791e-05 -0.001139279 8.832163e-06
0.00015693874 -0.0008137229 -0.00062923535 -0.0015366744 -4.7228557e-05 0.00028631126 0.009821453 0.0012866277
0.0003853726 0.0012095483 -0.009776136 -0.0004551506 0.001119332 0.0030056955 0.008367645 -0.0051153083
0.0021128147 0.0012392091 0.0016512694 0.00019046509 0.0016781379 -0.0010296362 -0.0022076443 0.0021471996
-0.001440472 0.0006576369 0.0006960174 0.0015909483 -0.007372527 -0.0006401768 -0.0027281076 0.0014367448
-0.0007179544 0.00016776579 -0.0003077645 0.001076678 0.00027082532 -0.0012061977 0.0052055838 -0.0001503098
-0.0006199484 0.0019940082 -0.00665135 -0.00094858836 0.0023181117 0.00042448164 0.0046210163 -6.7351575e-05
0.0009830376 -0.00084121304 -0.0006426505 -0.0015043044 -0.0013267142 0.0030344778 4.1856678e-05 0.0012496829
-0.0010059569 -0.0019478688 -0.0001555166 0.0029753062 -0.005134487 0.001354359 -0.002230124 0.000398717
-0.0007890953 0.00018196684 -0.00038520544 0.0025469451 -0.00021731263 -0.005290534 0.004858302 0.0010077629
-0.0005026817 0.0023130989 -0.006887825 -0.0005542618 0.001726886 -0.00019073504 0.0053634215 -0.0014076077
0.0019939612 -0.0014472039 -0.0007974204 -0.00021627966 -0.00062401 0.0011336276 -0.001041349 0.0019396511
-7.491819e-05 -0.00036039174 -2.4363628e-05 0.0007042838 -0.0088323895 0.002214706 -0.002710073 -0.0004010836
0.000532451 -0.000928624 -0.00073266815 -0.0030491496 0.0015815406 0.0010992523 0.010316103 -0.00018849563
-0.0006507158 0.002974162 -0.0064258827 -0.0011662125 6.514546e-05 -0.00045196738 0.007836482 0.0049594636
0.0018190965 -0.0017274253 -0.003106458 0.0009396089 -0.0037368238 0.0026442676 0.0015468252 0.001232268
00000000: 1271 20b9 77a6 c4bb 9dd1 9d3a 9904 09bb
00000010: d3b6 f3bb 1412 22bb 905e 28bb 8a8f 9b39
00000020: 48f5 733a d118 1fba 4a46 0cba 317b 4a3b
00000030: b589 f3b8 0c07 8bba a207 d13b fcbc 273a
00000040: cc27 1dba 7c53 9c3a 8877 10bc bcd0 8f3a
00000050: 3e65 95bb 2bfd 70ba c135 073c b6e8 8d3b
00000060: f537 123b c291 89b8 61b9 433a 3e30 8a38
00000070: 7c74 caba 9184 cf39 c3e2 9e3b 726f 5d3a
00000080: 299e 693a 24f8 c7ba d806 20ba cc97 153a
00000090: 4b17 febb 60e4 bc39 0ffe 19bb cbec 743a
000000a0: f5ef c738 52c4 91b9 1c15 6dba dcac 9739
000000b0: 7b40 16ba 3623 f13a 0821 d33b 3010 9a3a
000000c0: 2afa 87b7 ae5a 6cba 8699 03bc f5a7 92b9
000000d0: 48df 833a 4ebe 963a ff24 fd3b d878 55bb
000000e0: d2c2 0b3b a8e6 cdba 5a85 f23a 4b83 25ba
000000f0: b21d dc3a a997 f9b9 f9cc 003b 5cd7 a739
00000100: fad8 5139 7c41 65bb dfb0 ae38 fdb7 b4bb
00000110: 92a6 bcbb b02f 9dba 66fd e6ba c9b0 e53a
00000120: 9c9a 59b9 a65d 8fb9 9e64 dab9 1b65 93ba
00000130: 82d8 373a 291d bf3a d536 903b 74c8 df3a
00000140: 9e1d ba39 d45c 94ba df80 d1bb eb7a ef38
00000150: b12f d33b aa1a e53a ada0 e43b 84f8 10bc
00000160: 3737 3b3b cd6d 203b 605c 303b 8ca3 d0ba
00000170: 4473 9739 f395 7eba 4254 8e3b f179 223b
00000180: ffde adb9 e03f 5dbb 679b 9a39 1657 70b9
00000190: b572 c9bb 379d df39 73a1 beba 73cb 4b3a
000001a0: 5190 d5b9 f9c4 81b8 8ca9 8eb9 c36b 9bb9
000001b0: 7ec0 0d3a 6318 01b9 9ffe 643b e205 843a
000001c0: b778 cdb9 f02d 7b3a b861 debb 1672 42ba
000001d0: a2b0 fa3a 74c9 103a 9ee5 c03b 0dbb b5bb
000001e0: 616e cf3a 3749 b439 ef9e 2b3b bdec 24ba
000001f0: d21b bdb9 5dc3 d639 4354 7b3a 9d7e b33a
00000200: 2a4a 2c3a 54ee 6bba e04b 2b37 4b60 fc39
00000210: 3aa1 0fbc e09e 6a38 dc53 95ba da2d 1437
00000220: ec8f 2439 0550 55ba 45f3 24ba 3d6a c9ba
00000230: 4717 46b8 0c1c 9639 29ea 203c 10a4 a83a
00000240: d60b ca39 b589 9e3a 162c 20bc 48a1 eeb9
00000250: 8db6 923a 34fb 443b 7218 093c 519e a7bb
00000260: 2677 0a3b f56c a23a 686f d83a 95b7 4739
00000270: f7f4 db3a dcf4 86ba 20ae 10bb 08b8 0c3b
00000280: 38ce bcba 4465 2c3a f074 363a 5e87 d03a
00000290: 3d95 f1bb 8ad1 27ba 0dca 32bb 2851 bc3a
000002a0: 1b35 3cba 49ea 2f39 745b a1b9 521f 8d3a
000002b0: 8ffd 8d39 4719 9eba 9a93 aa3b 7b9c 1db9
000002c0: 0884 22ba e8ad 023b 91f3 d9bb b0aa 78ba
000002d0: 76eb 173b f68c de39 e56b 973b 1a3f 8db8
000002e0: 45d9 803a da84 5cba 8c77 28ba 142c c5ba
000002f0: 24e5 adba 17de 463b 448f 2f38 66cc a33a
00000300: 50da 83ba a24f ffba 2b12 23b9 5bfd 423b
00000310: 333f a8bb bf84 b13a 4627 12bb e40a d139
00000320: 4adb 4eba 5ace 3e39 66f5 c9b9 a6ea 263b
00000330: 6ade 63b9 375c adbb 6432 9f3b e916 843a
00000340: 66c6 03ba 5c97 173b 44b3 e1bb e14b 11ba
00000350: ae58 e23a 0c00 48b9 a4bf af3b 7a7f b8ba
00000360: 1ead 023b 1bb0 bdba fa09 51ba 21c9 62b9
00000370: 9a94 23ba 3b96 943a e07d 88ba e43b fe3a
00000380: 661d 9db8 f6f2 bcb9 7e60 ccb7 b09f 383a
00000390: bab5 10bc 9a24 113b 7b9b 31bb 8848 d2b9
000003a0: 2f94 0b3a e76e 73ba 8710 40ba 3ed4 47bb
000003b0: b24b cf3a c914 903a df04 293c e9a6 45b9
000003c0: cc94 2aba 29ea 423b 3690 d2bb 99db 98ba
000003d0: b49e 8838 09f6 ecb9 9664 003c ff82 a23b
000003e0: c06e ee3a c66a e2ba b895 4bbb 1650 763a
000003f0: 80e5 74bb 734b 2d3b d7be ca3a 0e84 a13a

bert.embeddings.hop_dis_embeddings.weight f4 [100, 32]
-0.00015300945 -0.0060013225 0.001204061 -0.0020907281 -0.007437569 -0.0024729958 -0.0025690105 0.00029670913
0.0009306209 -0.00060694607 -0.00053510617 0.0030896638 -0.000116124866 -0.0010606996 0.0063790856 0.0006398668
-0.0005995255 0.0011926725 -0.008817561 0.0010972251 -0.0045591644 -0.00091931963 0.008252563 0.0043305955
0.0022311208 -6.552842e-05 0.0007466531 6.58911e-05 -0.0015446052 0.00039580304 0.0048488104 0.00084470335
-0.009332547 -0.008211797 0.0011996123 0.0008059009 -0.021245964 -0.005013131 0.00017804035 -0.0021107302
0.003664851 -0.0012564124 0.016049283 -0.00015763099 0.0007897826 -0.007069852 0.036908597 -0.011723333
-0.0048695537 0.010221291 -0.017985016 0.0023162528 -0.0068421965 -0.0030736013 0.023863234 0.0128314085
-0.008038583 0.0029540882 -0.0014814042 -0.0008575948 -0.0025654868 0.0048443875 0.0075688534 0.003742009
0.017800068 -0.013699487 0.020819306 -0.012239003 -0.06773981 -0.007431685 0.015531242 -0.0013547123
0.0022907737 -0.0026489794 0.001226901 -6.892251e-05 -0.009724247 0.0009582016 0.088904135 -0.0334069
0.0074437447 -0.014962156 -0.051966116 0.020325702 -0.009612915 -0.00233684 0.032852888 0.0034951214
-0.009112476 0.048744105 0.0036860541 -0.009228465 0.005852664 -0.014323512 0.019418843 -0.010497413
-0.0002779751 -0.014575491 -0.024135683 -0.011228336 -0.02556141 -0.0072617163 8.2584986e-05 0.014269689
0.0013809479 0.009144849 0.019200059 0.0014803513 -0.020140072 -0.014647204 0.06962726 -0.018144535
-0.0037938214 -0.00435376 -0.04318056 -0.010361909 0.016469194 -0.00071819837 0.04269021 -0.0059915003
-0.016394349 0.024944033 0.006408088 -0.0073865857 0.0029063304 -0.002234948 0.011992325 -0.0021023047
0.0012062192 -0.0148056075 -0.018276002 -0.006082691 -0.0045114276 -0.0065173097 -0.0062684333 0.014183062
0.0030888347 0.027844558 0.024133692 0.017948076 -0.010960245 -0.030799218 0.057280004 0.00742805
-0.011648065 -0.006045972 -0.033351135 -0.0018086648 0.019803204 -0.00043475715 0.0060259905 -0.0088172285
-0.009344108 -0.002540726 0.0037924084 -0.004668188 0.0028054472 -0.0076984596 0.012677728 0.00241475
0.0021739681 -0.013292462 0.0023519802 -0.0065846373 0.0015269229 -0.0073626204 -0.0013629387 0.0010698256
0.00030586356 -0.001350073 0.00130404 -0.0101401005 -0.0034807741 0.010372277 0.03188307 -0.0034529828
-0.0041928426 -0.00028150014 -0.02274563 -0.0026694022 0.016434796 -0.0024454314 -0.018982325 0.0058806324
-0.0076759914 0.009594425 -0.0031484866 -0.0049476014 -0.00065812364 -0.0005879412 0.007888658 0.0007612294
-0.0006815113 -0.0059571955 -0.00096398743 0.0015036238 -0.0060938676 -0.0076427786 -0.0007862837 -0.0007807427
0.00048527328 -0.00054425624 -0.00039738195 3.5120713e-05 -0.0017989675 0.0030091978 0.0021980237 -0.00027144887
-6.295926e-05 0.0017517898 -0.0033450804 0.0015164724 -0.0034130749 -1.3204204e-05 0.0052420665 0.008195421
0.0017230529 0.0024399608 -0.002876188 -0.0006082262 0.00058149407 0.0017069489 0.003900869 0.0001176043
3.8751692e-05 5.817224e-05 -0.0003101249 0.002859769 -0.00024001859 -0.00485345 -0.0006093904 0.00041240582
0.00032094074 0.00048401108 3.346881e-05 0.00034159908 -0.0007090502 -0.0001366648 0.00040228572 -0.00019712148
1.5673893e-06 -0.0005187555 -0.002029372 2.1769301e-07 -0.0022100445 -0.00028081288 0.0007596513 0.0033916582
0.0006699373 0.00049398857 -0.0039343066 -0.00019513865 0.0006833053 0.0021415397 0.0009981128 0.00012269388
00000000: 2971 20b9 bea6 c4bb 95d1 9d3a 9904 09bb
00000010: dab6 f3bb fc11 22bb d85c 28bb a08f 9b39
00000020: e9f4 733a 761b 1fba 5e46 0cba f57b 4a3b
00000030: 1088 f3b8 2c07 8bba a607 d13b bcbc 273a
00000040: 7a29 1dba 7353 9c3a 8877 10bc c4d0 8f3a
00000050: 0b65 95bb 7ffe 70ba c235 073c abe7 8d3b
00000060: ff37 123b 4d6c 89b8 0bbb 433a 042f 8a38
00000070: 5a74 caba c983 cf39 c5e2 9e3b 156f 5d3a
00000080: 8ae7 18bc c68a 06bc 4f3c 9d3a 1843 533a
00000090: 040c aebc 3145 a4bb 58b0 3a39 2d54 0abb
000000a0: ff2d 703b 34ae a4ba c979 833c bf49 25b9
000000b0: 6a09 4f3a 38aa e7bb 782d 173d 3913 40bc
000000c0: c790 9fbb 3477 273c 5055 93bc 46cc 173b
000000d0: 8134 e0bb 796e 49bb d47c c33c d43a 523c
000000e0: 43b4 03bc 6099 413b ad2b c2ba 36d0 60ba
000000f0: ba21 28bb abbd 9e3b 2504 f83b 7e3c 753b
00000100: 73d1 913c d073 60bc 408d aa3c 1986 48bc
00000110: 2bbb 8abd 7e85 f3bb c076 7e3c 9a90 b1ba
00000120: ce20 163b 809a 2dbb f7cf a03a 7e8a 90b8
00000130: 7352 1fbc d22f 7b3a 5f13 b63d acd5 08bd
00000140: a8ea f33b d523 75bc 6cda 54bd 1682 a63c
00000150: 7d7f 1dbc ab25 19bb c090 063d 680e 653b
00000160: 7f4c 15bc e6a7 473d ba91 713b fd32 17bc
00000170: b4c7 bf3b 2aad 6abc 4414 9f3c 57fd 2bbc
00000180: 30bd 91b9 0ace 6ebc 32b8 c5bc 0ef7 37bc
00000190: 2966 d1bc b1f3 edbb 7a31 ad38 6acb 693c
000001a0: ec00 b53a 47d4 153c 7149 9d3c 5908 c23a
000001b0: cbfc a4bc d4fa 6fbc bd98 8e3d d9a3 94bc
000001c0: c3a1 78bb fca9 8ebb 19de 30bd ffc4 29bc
000001d0: 67ea 863c 7a45 3cba eedb 2e3d 5954 c4bb
000001e0: 714d 86bc 6e57 cc3c f0fa d13b 2c0b f2bb
000001f0: 2278 3e3b 3578 12bb 757b 443c d2c6 09bb
00000200: 001a 9e3a 3893 72bc 8eb7 95bc 4f51 c7bb
00000210: 99d4 93bb 288f d5bb 6e67 cdbb 1360 683c
00000220: 0c6e 4a3b 451a e43c 05b4 c53c d807 933c
00000230: 9992 33bc a44e fcbc 709e 6a3d 0067 f33b
00000240: 87d7 3ebc 4a1d c6bb 339b 08bd b810 edba
00000250: 543a a23c 1ef0 e3b9 ac75 c53b 2376 10bc
00000260: 0818 19bc 4f82 26bb 0e8a 783b 99f7 98bb
00000270: 98db 373b 5c43 fcbb 3fb6 4f3c c840 1e3b
00000280: 2279 0e3b a0c8 59bc ae23 1a3b f1c3 d7bb
00000290: 0823 c83a 2342 f1bb a2a4 b2ba 6439 8c3a
000002a0: 505c a039 eff4 b0ba 52ec aa3a aa22 26bc
000002b0: b31d 64bb 7cf0 293c d297 023d 704b 62bb
000002c0: 1d64 89bb 4f96 93b9 0b55 babc 23f1 2ebb
000002d0: 44a2 863c 8843 20bb d280 9bbc 52b2 c03b
000002e0: e286 fbbb ef31 1d3c d756 4ebb 7d1f a2bb
000002f0: ee85 2cba 1120 1aba 6e3f 013c 3e8d 473a
00000300: 73a7 32ba 9434 c3bb 1ab4 7cba 3e15 c53a
00000310: 11af c7bb 4670 fabb 9b1e 4eba c1aa 4cba
00000320: 476c fe39 6bac 0eba b457 d0b9 944e 1338
00000330: 55cb ebba f635 453b b80c 103b 4051 8eb9
00000340: ff08 84b8 509c e53a 2339 5bbb 5fc4 c63a
00000350: e5ad 5fbb a087 5db7 a4c5 ab3b 1646 063c
00000360: 10d8 e13a c0e7 1f3b 6d7e 3cbb 5f71 1fba
00000370: 686f 183a b3bb df3a b9a5 7f3b 54a2 f638
00000380: 5089 2238 f8fd 7338 4298 a2b9 f66a 3b3b
00000390: 80ad 7bb9 b109 9fbb 7fbf 1fba 2c38 d839
000003a0: f043 a839 dec2 fd39 dc60 0c38 a718 b339
000003b0: 8edf 39ba ae4d 0fb9 e0e9 d239 65b2 4eb9
000003c0: 165f d235 18fd 07ba 36ff 04bb 00bf 6934
000003d0: 65d6 10bb 113a 93b9 5623 473a 9546 5e3b
000003e0: bb9e 2f3a 037f 013a 5beb 80bb 229e 4cb9
000003f0: d81f 333a 1359 0c3b 1cd3 823a 63a7 0039

bert.embeddings.LayerNorm.weight f4 [32]
0.1275996 0.25739968 0.0831191 0.26440856 0.30275965 0.44657737 0.1879368 0.16811725
0.21226655 0.09557804 0.04772369 0.2650512 0.18816145 0.071824014 0.4949629 0.1988478
0.11286247 0.22167821 0.35614824 0.1018553 0.17334777 0.19736853 0.44266564 0.30180413
0.20071131 0.25311327 0.22765419 0.19286653 0.1474526 0.14618523 0.20706455 0.20947862
00000000: 78a9 023e e4c9 833e 593a aa3d 8f60 873e
00000010: 5003 9b3e caa5 e43e 8172 403e ee26 2c3e
00000020: 675c 593e 6bbe c33d ea79 433d cab4 873e
00000030: 65ad 403e 7818 933d c76b fd3e c29e 4b3e
00000040: 7024 e73d 9dff 623e 1059 b63e 8399 d03d
00000050: 1482 313e fa1a 4a3e 12a5 e23e 1286 9a3e
00000060: 4487 4d3e 1098 813e 2e1e 693e ce7e 453e
00000070: d0fd 163e 95b1 153e bb08 543e 9081 563e

bert.embeddings.LayerNorm.bias f4 [32]
-0.004370594 0.04835741 -0.014531832 0.04798063 -0.08317017 0.018390987 -0.023578238 0.012669051
0.0017722327 -0.010908687 -0.020801088 -0.027892957 -1.7793267e-05 0.03212156 0.10528713 -0.03520172
0.017461095 0.038847473 -0.07174288 -0.008946627 -0.020892669 -0.0072893286 0.040848285 0.021452548
0.018437762 -0.018332167 -0.02420981 0.024484633 -0.019680329 0.04598865 -0.03890142 0.02944461
00000000: 3337 8fbb 6b12 463d ec16 6ebc 5687 443d
00000010: 1f55 aabd b2a8 963c 2627 c1bc da91 4f3c
00000020: 434a e83a 59ba 32bc 0b67 aabc c57f e4bc
00000030: c042 95b7 e691 033d c7a0 d73d ae2f 10bd
00000040: 920a 8f3c 871e 1f3d eeed 92bd e094 12bc
00000050: 1a27 abbc 52db eebb 8850 273d 41bd af3c
00000060: ca0a 973c 572d 96bc a753 c6bc ff93 c83c
00000070: a438 a1bc 985e 3c3d 1857 1fbd d335 f13c

bert.encoder.layer.0.attention.self.query.weight f4 [32, 32]
1.1146492e-05 1.0569823e-05 3.4403502e-06 -8.464074e-06 -2.52756e-05 1.5428239e-05 -3.32421e-05 2.9331057e-05
-5.9472122e-06 -2.0148702e-05 5.0817453e-06 9.625088e-06 -1.3337931e-05 9.153366e-06 -1.4613815e-05 -3.0274003e-05
1.124641e-05 -1.6700862e-05 -5.5802066e-06 -2.2312173e-05 -1.7262477e-05 -2.4196548e-05 1.450196e-05 4.5451037e-05
-9.991628e-06 3.9540526e-05 -6.9003863e-06 -9.396662e-06 -3.5852743e-05 -1.3743456e-05 6.0730663e-06 1.0505758e-05
1.2627012e-05 2.3813376e-05 -2.7899734e-05 3.810148e-06 3.0869815e-05 -1.5166581e-05 -2.1282813e-05 2.0538988e-05
-8.0138943e-07 2.9635681e-05 3.8049526e-05 3.680478e-05 1.1477829e-05 5.9694605e-05 1.8874724e-05 -3.9837993e-05
3.97215e-05 -1.5034175e-06 -2.1319707e-05 1.6127218e-05 -4.535458e-06 2.173244e-05 -1.7731916e-05 -1.6056336e-05
-7.4272793e-07 3.5554593e-05 2.784118e-06 -3.0036046e-05 -1.8966446e-05 2.3879446e-05 -3.0442667e-05 2.0486143e-05
-2.4676452e-05 -8.842847e-06 -1.7545892e-05 2.3488683e-06 -3.0816176e-05 2.1302987e-05 4.060215e-05 7.684688e-06
5.6953104e-07 -2.6442125e-05 2.5648598e-05 -1.6341459e-05 -6.9767916e-06 -5.138834e-05 -1.3003466e-05 3.3785396e-05
3.311464e-05 -1.0166244e-05 -7.970118e-06 1.108667e-05 1.02062395e-05 -5.958046e-06 -1.5445969e-05 3.1029496e-05
1.805687e-05 3.4624387e-05 -4.0075556e-06 -2.1396112e-05 3.1360007e-05 -1.20438335e-05 2.7087499e-05 1.1332022e-05
-6.5204476e-06 5.115995e-06 7.374136e-06 2.8047078e-05 -2.5272997e-05 1.22696165e-05 3.2912758e-05 -2.6166541e-05
5.7189013e-06 -2.1543394e-05 1.92412e-05 9.135321e-06 2.6796838e-06 -4.1806725e-05 -1.6279997e-05 -8.7496574e-07
-2.8555307e-05 1.8103976e-05 1.391157e-05 -5.2259134e-06 1.3089579e-05 -1.2980008e-05 -1.3498849e-05 3.4883247e-05
1.686647e-05 -2.9912499e-05 -1.65398e-05 -1.26648465e-05 -1.2676455e-05 1.7398499e-05 -2.5067915e-05 1.4917832e-05
9.31558e-06 -1.7973434e-06 2.4062356e-06 2.9639228e-05 -1.033832e-05 9.585576e-06 -1.827128e-05 -1.6655798e-05
4.9040696e-06 3.3066062e-06 9.320886e-06 2.2385153e-05 -2.8366117e-06 -6.69344e-06 -1.4739985e-05 1.0338548e-05
-6.5752256e-06 6.617359e-06 -1.0580965e-05 5.056795e-07 -1.1590436e-05 -6.07926e-06 -8.20923e-06 -3.2253007e-05
4.5157694e-06 1.2232063e-05 -2.04209e-05 1.0568674e-06 2.2163693e-05 2.6564017e-05 1.6693033e-05 -2.6505331e-06
-5.8192068e-06 2.4948891e-05 1.7524424e-05 1.1782569e-05 2.4281488e-05 -4.748663e-06 -3.1729007e-05 1.7337496e-05
1.5387684e-05 -1.4946384e-05 2.277851e-05 -9.253915e-06 1.9057507e-05 9.87922e-06 2.5050049e-06 1.9537323e-05
-2.0721573e-05 -1.3904141e-05 -1.5980164e-05 -1.103828e-05 -1.6695658e-05 1.688386e-07 1.8508948e-05 1.809607e-06
-7.0946e-06 1.9753636e-05 -1.9175513e-05 -2.4209088e-05 1.9502277e-05 -2.5765685e-05 -2.099192e-05 -2.4294404e-06
-1.0760361e-05 -2.6641204e-05 1.48746685e-05 -1.4091256e-06 1.1555688e-05 1.4604181e-05 -1.4989348e-05 2.4714005e-05
3.7653704e-06 -4.5922798e-06 7.78674e-06 -3.405929e-05 2.9130574e-06 1.9251214e-05 1.7269384e-05 -2.2171953e-06
2.6133686e-05 2.265469e-05 9.730933e-06 7.012656e-06 9.696225e-06 -1.7806979e-05 3.3587203e-06 -1.1330393e-05
-2.6067573e-06 -6.477285e-07 -2.1790078e-05 1.3943791e-05 2.6471896e-05 -2.8207898e-05 -2.8482418e-05 1.7608376e-05
-1.0509332e-05 -4.431063e-06 -1.258631e-05 2.9659803e-05 4.5697348e-06 -5.653889e-06 -1.2552387e-05 7.0822116e-06
-5.7388297e-07 -1.2717099e-05 -1.3830668e-06 -1.6569396e-05 2.0967059e-06 1.540759e-05 3.623839e-06 2.1583279e-05
7.757878e-06 3.3077433e-06 -1.0057639e-05 2.4995297e-06 -6.492379e-06 -3.744365e-06 -1.3673849e-05 -5.236442e-06
-9.309766e-06 -1.00691e-05 2.9918456e-06 -1.0222919e-05 -1.340718e-06 -1.7649994e-05 -3.5995708e-06 2.2185186e-06
00000000: d201 3b37 0b55 3137 c4e0 6636 ec00 0eb7
00000010: f006 d4b7 e46b 8137 6f6d 0bb8 f70b f637
00000020: 2a8e c7b6 0205 a9b7 dc83 aa36 707b 2137
00000030: fac5 5fb7 6891 1937 dc2d 75b7 edf4 fdb7
00000040: f7ae 3c37 d418 8cb7 9c3d bbb6 072b bbb7
00000050: e3ce 90b7 b1f9 cab7 724d 7337 aea2 3e38
00000060: b7a1 27b7 51d8 2538 de89 e7b6 5ba6 1db7
00000070: 9760 16b8 b293 66b7 3ec7 cb36 e341 3037
00000080: 9bd8 5337 d6c2 c737 390a eab7 d8b1 7f36
00000090: 367a 0138 f873 7eb7 7e88 b2b7 244b ac37
000000a0: 101f 57b5 249a f837 5e97 1f38 d55e 1a38
000000b0: e690 4037 9860 7a38 2955 9e37 b817 27b8
000000c0: a39a 2638 08c9 c9b5 b9d7 b2b7 f048 8737
000000d0: 4a2f 98b6 0f4e b637 00bf 94b7 b8b0 86b7
000000e0: e05f 47b5 7420 1538 c8d6 3a36 ebf5 fbb7
000000f0: 221a 9fb7 b850 c837 215f ffb7 a8d9 ab37
00000100: 4700 cfb7 bd5b 14b7 842f 93b7 40a1 1d36
00000110: 9e40 01b8 d1b3 b237 3a4c 2a38 7ced 0037
00000120: e0e1 1835 08d0 ddb7 f227 d737 0415 89b7
00000130: 2f1a eab6 cf89 57b8 7629 5ab7 cbb4 0d38
00000140: 93e4 0a38 af8f 2ab7 65b7 05b7 e300 3a37
00000150: 773b 2b37 3aeb c7b6 f791 81b7 ab25 0238
00000160: d578 9737 a739 1138 a478 86b6 cd7b b3b7
00000170: 8d88 0338 df0f 4ab7 f639 e337 aa1e 3e37
00000180: 38ca dab6 10aa ab36 596f f736 a446 eb37
00000190: 5901 d4b7 9ad9 4d37 ce0b 0a38 3880 dbb7
000001a0: fde4 bf36 16b8 b4b7 2a68 a137 e843 1937
000001b0: 9ed4 3336 a159 2fb8 0791 88b7 30df 6ab5
000001c0: 0e8a efb7 fedd 9737 bd65 6937 415a afb6
000001d0: 509b 5b37 b6c4 59b7 1d79 62b7 9a4f 1238
000001e0: 787c 8d37 9aec fab7 f3be 8ab7 1a7b 54b7
000001f0: f6ac 54b7 fef2 9137 f048 d2b7 9a47 7a37
00000200: 1d4a 1c37 403c f1b5 d07a 2136 c2a1 f837
00000210: bf72 2db7 bcd1 2037 4645 99b7 0eb8 8bb7
00000220: a38d a436 10e7 5d36 e760 1c37 c0c7 bb37
00000230: 9e5c 3eb6 3698 e0b6 c14b 77b7 ba73 2d37
00000240: c2a0 dcb6 ae0a de36 e684 31b7 08be 0735
00000250: 8b74 42b7 72fc cbb6 60ba 09b7 6747 07b8
00000260: 2a86 9736 5038 4d37 8c4d abb7 b0d9 8d35
00000270: 2bec b937 cbd5 de37 0408 8c37 d0df 31b6
00000280: 9b42 c3b6 5649 d137 6a01 9337 c0ad 4537
00000290: 19b0 cb37 b456 9fb6 c314 05b8 fd6f 9137
000002a0: cd14 8137 3bc2 7ab7 7a14 bf37 4341 1bb7
000002b0: afdd 9f37 edbe 2537 a81b 2836 15e4 a337
000002c0: 3dd3 adb7 d545 69b7 240d 86b7 0d31 39b7
000002d0: a70d 8cb7 004a 3534 aa43 9b37 a0e1 f235
000002e0: 260e eeb6 9cb4 a537 1adb a0b7 9f14 cbb7
000002f0: d298 a337 6323 d8b7 ce17 b0b7 7809 23b6
00000300: 6687 34b7 8d7b dfb7 378e 7937 3021 bdb5
00000310: 4ddf 4137 7b04 7537 c27a 7bb7 ec50 cf37
00000320: 92b0 7c36 6217 9ab6 cba3 0237 e2da 0eb8
00000330: f27d 4336 ab7d a137 b8dd 9037 20cb 14b6
00000340: aa39 db37 940a be37 0a42 2337 424e eb36
00000350: f8ac 2237 3260 95b7 6066 6136 ab17 3eb7
00000360: c0ef 2eb6 90df 2db5 d6c9 b6b7 20f0 6937
00000370: f70f de37 00a0 ecb7 87ed eeb7 b3b5 9337
00000380: 3d51 30b7 8bae 94b6 ca29 53b7 f1cd f837
00000390: b955 9936 89b6 bdb6 1798 52b7 bca3 ed36
000003a0: f00c 1ab5 865b 55b7 d0a1 b9b5 82fe 8ab7
000003b0: 22b5 0c36 8c3f 8137 1431 7336 bd0d b537
000003c0: d527 0237 99fa 5d36 3bbd 28b7 98bd 2736
000003d0: 1cd9 d9b6 b347 7bb6 bc68 65b7 b2b4 afb6
000003e0: 2431 1cb7 75ee 28b7 84c7 4836 1a83 2bb7
000003f0: b8f2 b3b5 130f 94b7 2890 71b6 dce1 1436

bert.encoder.layer.0.attention.self.query.bias f4 [32]
-4.714694e-05 -9.81014e-06 -3.9582665e-05 2.7134534e-05 -2.7525102e-05 -4.6338873e-06 -2.4304769e-05 -3.384184e-05
3.5793775e-05 -3.3497123e-05 5.1132258e-05 -8.162988e-06 -8.597406e-06 -4.8227488e-05 -4.7858202e-06 1.7233764e-05
-2.8126833e-06 2.9781311e-05 5.341745e-06 2.1975542e-05 -2.0791422e-05 -1.6185028e-05 -2.8621248e-06 -1.1165361e-05
-1.562013e-05 3.792573e-05 2.2886328e-05 -1.5753194e-05 3.528168e-05 1.3783081e-05 8.665775e-06 2.6925423e-05
00000000: a4bf 45b8 3b96 24b7 9005 26b8 f89e e337
00000010: b5e5 e6b7 ca7c 9bb6 18e2 cbb7 66f1 0db8
00000020: 4621 1638 437f 0cb8 d876 5638 c4f3 08b7
00000030: 943d 10b7 df47 4ab8 e295 a0b6 3a91 9037
00000040: 88c1 3cb6 e1d2 f937 3d3d b336 1e58 b837
00000050: 3d69 aeb7 15c5 87b7 ee12 40b6 dc52 3bb7
00000060: f907 83b7 7112 1f38 04fc bf37 ba25 84b7
00000070: 6afb 1338 e23d 6737 3863 1137 e8dd e137

bert.encoder.layer.0.attention.self.key.weight f4 [32, 32]
2.378645e-05 4.5879856e-06 2.2891885e-05 -3.906585e-06 -1.5125332e-05 -3.091809e-05 3.1693475e-08 4.315644e-05
1.8152852e-05 3.763179e-05 2.8972754e-05 -1.2801125e-05 -8.960077e-06 -2.6189691e-05 -3.769726e-05 6.4788264e-06
-1.5322739e-06 7.984955e-06 9.121406e-06 -3.9679366e-05 5.0663468e-05 -1.3568547e-05 3.24888e-05 2.9845947e-05
4.0855557e-06 2.92277e-06 1.4180554e-05 2.4410156e-05 2.0238404e-05 1.5957496e-05 4.707633e-06 -2.2332744e-05
1.2242369e-05 -1.3904992e-07 2.9514718e-05 -1.508434e-05 -5.6205587e-05 -4.752854e-05 2.7957442e-06 4.277585e-05
1.7150765e-05 4.3800283e-05 -2.1717124e-05 2.424116e-05 1.9941679e-05 -6.325678e-05 -4.425468e-05 1.5090476e-05
6.249511e-07 2.2284954e-05 -1.1997731e-05 8.981675e-06 -1.7258673e-05 1.956686e-06 2.2154123e-05 3.2598462e-05
-2.1199598e-06 4.381678e-06 -8.4348994e-07 -3.017733e-05 3.140679e-05 -1.8108472e-05 -1.05940935e-05 2.7657927e-05
-1.0207356e-05 -7.991721e-07 4.3184984e-05 -1.1612085e-05 -5.729699e-05 1.42428335e-05 7.429732e-06 4.721547e-05
6.4828946e-06 -1.7124545e-05 -2.7533171e-05 -9.667964e-06 -6.002592e-07 -5.3271688e-06 -4.4717122e-05 -1.1223178e-05
-2.2007733e-05 2.1021979e-05 -7.5270646e-06 7.184528e-06 5.7476325e-05 9.896823e-06 5.402643e-05 4.751937e-06
5.6178415e-06 1.4601101e-06 2.2604052e-05 -1.63763e-05 -3.15205e-05 2.3730085e-05 9.59786e-06 -1.5231048e-05
1.2308152e-05 -6.097642e-06 -1.3083798e-05 -9.145555e-06 1.6212416e-05 3.6840953e-05 -6.376213e-06 3.0795378e-05
-3.5418684e-06 2.8487048e-05 1.7192502e-05 2.9115388e-05 4.543469e-06 2.7924485e-05 -2.0836946e-05 -1.3254251e-05
-1.4084237e-05 1.848209e-05 1.2284022e-05 1.9505276e-05 -4.0046243e-06 8.850325e-06 -4.3491718e-07 -9.197308e-06
-7.62369e-06 -6.8783147e-06 1.7321363e-05 1.985606e-06 -1.0367597e-05 3.2113456e-07 -1.5916503e-05 2.7713822e-05
6.403993e-07 -1.3478819e-05 9.696459e-06 2.277135e-06 7.0227316e-06 2.2789927e-06 -8.490302e-06 1.0765729e-05
-1.3052161e-05 -1.6777545e-05 -1.1817678e-05 -2.4202265e-05 -4.081517e-06 1.9110581e-05 2.8122422e-06 1.2217488e-05
-1.0033603e-05 2.0957326e-05 -8.876792e-06 1.2923509e-05 1.1679545e-05 6.3724387e-06 3.659252e-07 1.7589186e-06
-1.8194364e-06 -3.395076e-06 -1.00574125e-05 -1.6503014e-05 -3.098835e-06 -4.561053e-06 -5.5723763e-06 2.420642e-06
-1.7833541e-05 -9.47931e-06 -1.794407e-05 9.039675e-06 3.524059e-05 2.0114581e-05 -1.4334105e-06 1.9745614e-05
-2.5993245e-06 1.5625756e-05 -1.2010415e-05 5.4103393e-06 1.7391714e-05 3.228731e-05 -5.0927542e-06 -5.2943215e-06
1.0262264e-05 6.404388e-06 1.2580627e-05 5.1789666e-06 2.6863041e-05 8.070481e-06 -2.2807222e-05 -1.6112528e-05
-1.0579124e-06 1.7157398e-06 1.2081214e-05 1.5025557e-05 1.6065402e-05 -6.63943e-06 9.4315055e-06 -2.3020462e-05
2.1505764e-05 1.27511785e-05 -1.7741295e-05 -1.1304215e-05 5.7572715e-06 -3.2761858e-05 6.3618213e-06 2.2274242e-05
-4.7856192e-06 2.3760185e-06 -1.7263119e-05 1.5479434e-05 3.539701e-06 -2.6065623e-05 -1.5706482e-05 -1.3606073e-06
-6.767862e-06 1.1576589e-05 -8.489757e-06 1.5447413e-06 -3.6405409e-06 -1.0022986e-05 4.1369367e-06 1.25426195e-05
-7.4755e-06 -6.185138e-06 1.1975236e-05 -2.7042695e-05 7.499001e-06 1.769345e-06 -1.3170151e-05 1.3482128e-05
-1.749479e-05 6.5106665e-06 -4.057274e-05 1.5601097e-05 -1.2578207e-05 7.1930117e-06 -4.7192225e-06 2.6569247e-05
-8.403687e-06 2.0506039e-05 2.1002206e-05 -1.1466867e-05 2.1507283e-05 3.660663e-05 9.144983e-06 -8.921168e-06
-8.052093e-07 -7.5465173e-06 -7.090098e-07 3.35801e-05 -1.4501839e-05 8.8366824e-07 3.3702065e-05 -1.4321012e-05
-2.8057643e-06 1.0625938e-05 8.797242e-06 6.8020217e-06 -1.7314733e-05 -1.1667885e-05 9.06873e-06 -8.514081e-06
00000000: 0389 c737 7ff2 9936 f307 c037 4f15 83b6
00000010: cec2 7db7 0cae 01b8 581f 0833 e002 3538
00000020: f446 9837 d4d6 1d38 840a f337 6ac4 56b7
00000030: 3d53 16b7 efb1 dbb7 201d 1eb8 b264 d936
00000040: 88a8 cdb5 1ff7 0537 2408 1937 656d 26b8
00000050: 7c7f 5438 77a4 63b7 9544 0838 af5d fa37
00000060: a816 8936 ce24 4436 04e9 6d37 69c4 cc37
00000070: a4c5 a937 76dc 8537 42f6 9d36 3457 bbb7
00000080: 9364 4d37 c04d 15b4 6096 f737 bf12 7db7
00000090: 4abe 6bb8 6259 47b8 859e 3b36 386a 3338
000000a0: fdde 8f37 32b6 3738 2b2d b6b7 7f59 cb37
000000b0: 6e48 a737 baa8 84b8 1a9e 39b8 1a2d 7d37
000000c0: 50c2 2735 93f0 ba37 dd49 49b7 00b0 1637
000000d0: b8c6 90b7 9c4f 0336 9ed7 b937 55ba 0838
000000e0: a244 0eb6 5406 9336 306c 62b5 5325 fdb7
000000f0: c9ba 0338 a6e7 97b7 49bd 31b7 f202 e837
00000100: 4340 2bb7 b086 56b5 8621 3538 86d1 42b7
00000110: 2d52 70b8 81f4 6e37 e94c f936 3a09 4638
00000120: a487 d936 aea6 8fb7 09f7 e6b7 9733 22b7
00000130: 8021 21b5 08c0 b2b6 a58e 3bb8 2f4b 3cb7
00000140: 3f9d b8b7 5b58 b037 fe90 fcb6 a012 f136
00000150: bc12 7138 880a 2637 709a 6238 d472 9f36
00000160: e480 bc36 00f9 c335 d59d bd37 d65f 89b7
00000170: e134 04b8 f80f c737 7f06 2137 da88 7fb7
00000180: 1c7f 4e37 599a ccb6 7c82 5bb7 dc6f 19b7
00000190: e6ff 8737 ac85 1a38 41f3 d5b6 492a 0138
000001a0: d6b0 6db6 78f7 ee37 9e38 9037 d23c f437
000001b0: 1a74 9836 603f ea37 00cb aeb7 935e 5eb7
000001c0: 564b 6cb7 fc09 9b37 7917 4e37 439f a337
000001d0: 765f 86b6 db7b 1437 907e e9b4 234e 1ab7
000001e0: 00cf ffb6 46cc e6b6 584d 9137 7440 0536
000001f0: 7df0 2db7 6668 ac34 6e84 85b7 fb7a e837
00000200: e8e7 2b35 1623 62b7 f9ad 2237 e2d0 1836
00000210: cea4 eb36 ccf0 1836 9271 0eb7 749e 3437
00000220: 9bfa 5ab7 81bd 8cb7 8a44 46b7 f805 cbb7
00000230: f7f3 88b6 a94f a037 f4b9 3c36 b6f9 4c37
00000240: ff55 28b7 84cd af37 88ed 14b7 0cd2 5837
00000250: 44f3 4337 d5d2 d536 6074 c434 fc13 ec35
00000260: 5c33 f4b5 f6d6 63b6 42bc 28b7 f46f 8ab7
00000270: 94f5 4fb6 260b 99b6 59fa bab6 5072 2236
00000280: 3d99 95b7 5409 1fb7 9986 96b7 1ca9 1737
00000290: 4ccf 1338 bcbb a837 9c63 c0b5 62a3 a537
000002a0: 0e70 2eb6 0e14 8337 5780 49b7 768a b536
000002b0: 6ce4 9137 3c6c 0738 6de2 aab6 e0a5 b1b6
000002c0: 172c 2c37 46e5 d636 6211 5337 fcc6 ad36
000002d0: f157 e137 7466 0737 2352 bfb7 6429 87b7
000002e0: 98fd 8db5 5f48 e635 6bb0 4a37 4716 7c37
000002f0: 30c4 8637 45c8 deb6 023c 1e37 111c c1b7
00000300: 4767 b437 e5ed 5537 24d3 94b7 3ca7 3db7
00000310: 962e c136 c769 09b8 a177 d536 92d9 ba37
00000320: 2894 a0b6 b073 1f36 44d0 90b7 d5d9 8137
00000330: 9a8b 6d36 80a7 dab7 6ac1 83b7 1c9e b6b5
00000340: 7e17 e3b6 1239 4237 3b6f 0eb7 e854 cf35
00000350: 0450 74b6 6628 28b7 04d0 8a36 246e 5237
00000360: 0ed6 fab6 ee89 cfb6 3fe9 4837 bfd9 e2b7
00000370: ee9f fb36 3b7a ed35 5ef5 5cb7 4d31 6237
00000380: c7c1 92b7 3376 da36 a62c 2ab8 1adf 8237
00000390: fd06 53b7 805b f136 d059 9eb6 06e1 de37
000003a0: 90fd 0cb7 6204 ac37 e52d b037 d261 40b7
000003b0: 8a6a b437 128a 1938 676d 1937 20ac 15b7
000003c0: 9025 58b5 1738 fdb6 c852 3eb5 5cd8 0c38
000003d0: ed4c 73b7 3835 6d35 515b 0d38 4744 70b7
000003e0: aa4a 3cb6 0e46 3237 de97 1337 ec3c e436
000003f0: 1b3f 91b7 2fc1 43b7 e625 1837 b3d7 0eb7

bert.encoder.layer.0.attention.self.key.bias f4 [32]
2.6207374e-06 -1.5308855e-06 -7.4271657e-07 -1.1715451e-06 -2.2720496e-07 2.8827274e-06 1.3494623e-06 1.2288024e-07
7.0768465e-08 -2.6141265e-06 1.6533612e-06 8.77126e-07 7.019023e-07 1.3040585e-07 6.2129857e-07 -2.6424716e-06
-7.178098e-07 -2.8759746e-06 1.1971061e-06 -2.7489834e-06 -1.0525022e-06 1.2971294e-06 5.5525675e-07 1.4970644e-06
-1.4843429e-06 -3.987975e-07 3.386208e-08 -2.719291e-06 -3.4800132e-07 1.7605544e-06 -8.0099846e-07 -1.8994903e-06
00000000: eddf 2f36 d378 cdb5 185f 47b5 fc3d 9db5
00000010: a0f5 73b4 e174 4136 2c1f b535 10f1 0334
00000020: 60f9 9733 5a6e 2fb6 0fe9 dd35 a473 6b35
00000030: 5c6a 3c35 b005 0c34 50c7 2635 5155 31b6
00000040: 84af 40b5 de00 41b6 41ac a035 2d7b 38b6
00000050: b343 8db5 0719 ae35 f40c 1535 beee c835
00000060: a239 c7b5 501a d6b4 c06f 1133 107d 36b6
00000070: f0d4 bab4 304c ec35 3204 57b5 fdf1 feb5
